…
278/285 [============================>.] - ETA: 0s - loss: 0.1286 - acc: 0.9638
284/285 [============================>.] - ETA: 0s - loss: 0.1273 - acc: 0.9641
285/285 [==============================] - 3s 12ms/step - loss: 0.1271 - acc: 0.9643 - val_loss: 0.4656 - val_acc: 0.9060
Score for model: Test loss:  0.4660958521167136
Score for model: Test accuracy:  0.9059203980099503
_________________________________________________________________
Layer (type)                 Output Shape              Param #   
=================================================================
conv2d_1 (Conv2D)            (None, 16, 16, 2)         152       
_________________________________________________________________
activation_1 (Activation)    (None, 16, 16, 2)         0         
_________________________________________________________________
flatten_1 (Flatten)          (None, 512)               0         
_________________________________________________________________
dense_1 (Dense)              (None, 200)               102600    
_________________________________________________________________
activation_2 (Activation)    (None, 200)               0         
_________________________________________________________________
dense_2 (Dense)              (None, 62)                12462     
_________________________________________________________________
activation_3 (Activation)    (None, 62)                0         
=================================================================
Total params: 115,214
Trainable params: 115,214
Non-trainable params: 0
_________________________________________________________________
####################################################################################
###################################  CNN2  #########################################
####################################################################################
…
282/285 [============================>.] - ETA: 0s - loss: 0.2144 - acc: 0.9344
284/285 [============================>.] - ETA: 0s - loss: 0.2162 - acc: 0.9342
285/285 [==============================] - 18s 62ms/step - loss: 0.2158 - acc: 0.9342 - val_loss: 0.1510 - val_acc: 0.9647
Score for model: Test loss:  0.15055220255365281
Score for model: Test accuracy:  0.964726368159204
_________________________________________________________________
Layer (type)                 Output Shape              Param #   
=================================================================
conv2d_2 (Conv2D)            (None, 32, 32, 32)        896       
_________________________________________________________________
activation_4 (Activation)    (None, 32, 32, 32)        0         
_________________________________________________________________
conv2d_3 (Conv2D)            (None, 30, 30, 32)        9248      
_________________________________________________________________
activation_5 (Activation)    (None, 30, 30, 32)        0         
_________________________________________________________________
max_pooling2d_1 (MaxPooling2 (None, 15, 15, 32)        0         
_________________________________________________________________
dropout_1 (Dropout)          (None, 15, 15, 32)        0         
_________________________________________________________________
conv2d_4 (Conv2D)            (None, 15, 15, 64)        18496     
_________________________________________________________________
activation_6 (Activation)    (None, 15, 15, 64)        0         
_________________________________________________________________
conv2d_5 (Conv2D)            (None, 13, 13, 64)        36928     
_________________________________________________________________
activation_7 (Activation)    (None, 13, 13, 64)        0         
_________________________________________________________________
max_pooling2d_2 (MaxPooling2 (None, 6, 6, 64)          0         
_________________________________________________________________
dropout_2 (Dropout)          (None, 6, 6, 64)          0         
_________________________________________________________________
flatten_2 (Flatten)          (None, 2304)              0         
_________________________________________________________________
dense_3 (Dense)              (None, 512)               1180160   
_________________________________________________________________
activation_8 (Activation)    (None, 512)               0         
_________________________________________________________________
dropout_3 (Dropout)          (None, 512)               0         
_________________________________________________________________
dense_4 (Dense)              (None, 62)                31806     
_________________________________________________________________
activation_9 (Activation)    (None, 62)                0         
=================================================================
Total params: 1,277,534
Trainable params: 1,277,534
Non-trainable params: 0
_________________________________________________________________
####################################################################################
###################################  CNN3  #########################################
####################################################################################
…
282/285 [============================>.] - ETA: 0s - loss: 0.2817 - acc: 0.9118
284/285 [============================>.] - ETA: 0s - loss: 0.2827 - acc: 0.9117
285/285 [==============================] - 10s 34ms/step - loss: 0.2825 - acc: 0.9118 - val_loss: 0.2243 - val_acc: 0.9425
Score for model: Test loss:  0.22436841388043036
Score for model: Test accuracy:  0.9424626865671641
_________________________________________________________________
Layer (type)                 Output Shape              Param #   
=================================================================
conv2d_6 (Conv2D)            (None, 32, 32, 16)        448       
_________________________________________________________________
activation_10 (Activation)   (None, 32, 32, 16)        0         
_________________________________________________________________
conv2d_7 (Conv2D)            (None, 30, 30, 16)        2320      
_________________________________________________________________
activation_11 (Activation)   (None, 30, 30, 16)        0         
_________________________________________________________________
max_pooling2d_3 (MaxPooling2 (None, 15, 15, 16)        0         
_________________________________________________________________
dropout_4 (Dropout)          (None, 15, 15, 16)        0         
_________________________________________________________________
conv2d_8 (Conv2D)            (None, 15, 15, 32)        4640      
_________________________________________________________________
activation_12 (Activation)   (None, 15, 15, 32)        0         
_________________________________________________________________
conv2d_9 (Conv2D)            (None, 13, 13, 32)        9248      
_________________________________________________________________
activation_13 (Activation)   (None, 13, 13, 32)        0         
_________________________________________________________________
max_pooling2d_4 (MaxPooling2 (None, 6, 6, 32)          0         
_________________________________________________________________
dropout_5 (Dropout)          (None, 6, 6, 32)          0         
_________________________________________________________________
conv2d_10 (Conv2D)           (None, 6, 6, 64)          18496     
_________________________________________________________________
activation_14 (Activation)   (None, 6, 6, 64)          0         
_________________________________________________________________
conv2d_11 (Conv2D)           (None, 4, 4, 64)          36928     
_________________________________________________________________
activation_15 (Activation)   (None, 4, 4, 64)          0         
_________________________________________________________________
max_pooling2d_5 (MaxPooling2 (None, 2, 2, 64)          0         
_________________________________________________________________
dropout_6 (Dropout)          (None, 2, 2, 64)          0         
_________________________________________________________________
flatten_3 (Flatten)          (None, 256)               0         
_________________________________________________________________
dense_5 (Dense)              (None, 1024)              263168    
_________________________________________________________________
activation_16 (Activation)   (None, 1024)              0         
_________________________________________________________________
dense_6 (Dense)              (None, 512)               524800    
_________________________________________________________________
activation_17 (Activation)   (None, 512)               0         
_________________________________________________________________
dropout_7 (Dropout)          (None, 512)               0         
_________________________________________________________________
dense_7 (Dense)              (None, 62)                31806     
_________________________________________________________________
activation_18 (Activation)   (None, 62)                0         
=================================================================
Total params: 891,854
Trainable params: 891,854
Non-trainable params: 0
_________________________________________________________________
####################################################################################
###################################  LeNet  ########################################
####################################################################################
…
279/285 [============================>.] - ETA: 0s - loss: 0.2868 - acc: 0.9061
282/285 [============================>.] - ETA: 0s - loss: 0.2868 - acc: 0.9062
285/285 [==============================] - 6s 22ms/step - loss: 0.2855 - acc: 0.9066 - val_loss: 0.2167 - val_acc: 0.9365
Score for model: Test loss:  0.21676113067490202
Score for model: Test accuracy:  0.9364925373134328
_________________________________________________________________
Layer (type)                 Output Shape              Param #   
=================================================================
conv2d_12 (Conv2D)           (None, 32, 32, 6)         456       
_________________________________________________________________
activation_19 (Activation)   (None, 32, 32, 6)         0         
_________________________________________________________________
max_pooling2d_6 (MaxPooling2 (None, 16, 16, 6)         0         
_________________________________________________________________
dropout_8 (Dropout)          (None, 16, 16, 6)         0         
_________________________________________________________________
conv2d_13 (Conv2D)           (None, 16, 16, 16)        2416      
_________________________________________________________________
activation_20 (Activation)   (None, 16, 16, 16)        0         
_________________________________________________________________
max_pooling2d_7 (MaxPooling2 (None, 8, 8, 16)          0         
_________________________________________________________________
conv2d_14 (Conv2D)           (None, 8, 8, 35)          14035     
_________________________________________________________________
activation_21 (Activation)   (None, 8, 8, 35)          0         
_________________________________________________________________
max_pooling2d_8 (MaxPooling2 (None, 4, 4, 35)          0         
_________________________________________________________________
flatten_4 (Flatten)          (None, 560)               0         
_________________________________________________________________
dense_8 (Dense)              (None, 120)               67320     
_________________________________________________________________
activation_22 (Activation)   (None, 120)               0         
_________________________________________________________________
dropout_9 (Dropout)          (None, 120)               0         
_________________________________________________________________
dense_9 (Dense)              (None, 84)                10164     
_________________________________________________________________
activation_23 (Activation)   (None, 84)                0         
_________________________________________________________________
dense_10 (Dense)             (None, 62)                5270      
_________________________________________________________________
activation_24 (Activation)   (None, 62)                0         
=================================================================
Total params: 99,661
Trainable params: 99,661
Non-trainable params: 0
_________________________________________________________________
