…
278/285 [============================>.] - ETA: 0s - loss: 0.0877 - acc: 0.9753
284/285 [============================>.] - ETA: 0s - loss: 0.0902 - acc: 0.9754
285/285 [==============================] - 3s 11ms/step - loss: 0.0899 - acc: 0.9754 - val_loss: 0.4655 - val_acc: 0.9123
Score for model: Test loss:  0.46503880084481264
Score for model: Test accuracy:  0.9124875621890547
_________________________________________________________________
Layer (type)                 Output Shape              Param #   
=================================================================
conv2d_1 (Conv2D)            (None, 16, 16, 2)         152       
_________________________________________________________________
activation_1 (Activation)    (None, 16, 16, 2)         0         
_________________________________________________________________
flatten_1 (Flatten)          (None, 512)               0         
_________________________________________________________________
dense_1 (Dense)              (None, 200)               102600    
_________________________________________________________________
activation_2 (Activation)    (None, 200)               0         
_________________________________________________________________
dense_2 (Dense)              (None, 62)                12462     
_________________________________________________________________
activation_3 (Activation)    (None, 62)                0         
=================================================================
Total params: 115,214
Trainable params: 115,214
Non-trainable params: 0
_________________________________________________________________
####################################################################################
###################################  CNN2  #########################################
####################################################################################
…
283/285 [============================>.] - ETA: 0s - loss: 0.2404 - acc: 0.9307
284/285 [============================>.] - ETA: 0s - loss: 0.2406 - acc: 0.9307
285/285 [==============================] - 16s 57ms/step - loss: 0.2406 - acc: 0.9307 - val_loss: 0.1678 - val_acc: 0.9627
Score for model: Test loss:  0.16729769586701299
Score for model: Test accuracy:  0.9627611940298507
_________________________________________________________________
Layer (type)                 Output Shape              Param #   
=================================================================
conv2d_2 (Conv2D)            (None, 32, 32, 32)        896       
_________________________________________________________________
activation_4 (Activation)    (None, 32, 32, 32)        0         
_________________________________________________________________
conv2d_3 (Conv2D)            (None, 30, 30, 32)        9248      
_________________________________________________________________
activation_5 (Activation)    (None, 30, 30, 32)        0         
_________________________________________________________________
max_pooling2d_1 (MaxPooling2 (None, 15, 15, 32)        0         
_________________________________________________________________
dropout_1 (Dropout)          (None, 15, 15, 32)        0         
_________________________________________________________________
conv2d_4 (Conv2D)            (None, 15, 15, 64)        18496     
_________________________________________________________________
activation_6 (Activation)    (None, 15, 15, 64)        0         
_________________________________________________________________
conv2d_5 (Conv2D)            (None, 13, 13, 64)        36928     
_________________________________________________________________
activation_7 (Activation)    (None, 13, 13, 64)        0         
_________________________________________________________________
max_pooling2d_2 (MaxPooling2 (None, 6, 6, 64)          0         
_________________________________________________________________
dropout_2 (Dropout)          (None, 6, 6, 64)          0         
_________________________________________________________________
flatten_2 (Flatten)          (None, 2304)              0         
_________________________________________________________________
dense_3 (Dense)              (None, 512)               1180160   
_________________________________________________________________
activation_8 (Activation)    (None, 512)               0         
_________________________________________________________________
dropout_3 (Dropout)          (None, 512)               0         
_________________________________________________________________
dense_4 (Dense)              (None, 62)                31806     
_________________________________________________________________
activation_9 (Activation)    (None, 62)                0         
=================================================================
Total params: 1,277,534
Trainable params: 1,277,534
Non-trainable params: 0
_________________________________________________________________
####################################################################################
###################################  CNN3  #########################################
####################################################################################
…
283/285 [============================>.] - ETA: 0s - loss: 0.0258 - acc: 0.9940
284/285 [============================>.] - ETA: 0s - loss: 0.0258 - acc: 0.9941
285/285 [==============================] - 22s 79ms/step - loss: 0.0257 - acc: 0.9941 - val_loss: 0.3099 - val_acc: 0.9500
Score for model: Test loss:  0.31008657470932616
Score for model: Test accuracy:  0.9500497512437811
_________________________________________________________________
Layer (type)                 Output Shape              Param #   
=================================================================
conv2d_6 (Conv2D)            (None, 32, 32, 32)        896       
_________________________________________________________________
activation_10 (Activation)   (None, 32, 32, 32)        0         
_________________________________________________________________
conv2d_7 (Conv2D)            (None, 30, 30, 32)        9248      
_________________________________________________________________
activation_11 (Activation)   (None, 30, 30, 32)        0         
_________________________________________________________________
max_pooling2d_3 (MaxPooling2 (None, 15, 15, 32)        0         
_________________________________________________________________
conv2d_8 (Conv2D)            (None, 15, 15, 64)        18496     
_________________________________________________________________
activation_12 (Activation)   (None, 15, 15, 64)        0         
_________________________________________________________________
conv2d_9 (Conv2D)            (None, 13, 13, 64)        36928     
_________________________________________________________________
activation_13 (Activation)   (None, 13, 13, 64)        0         
_________________________________________________________________
max_pooling2d_4 (MaxPooling2 (None, 6, 6, 64)          0         
_________________________________________________________________
flatten_3 (Flatten)          (None, 2304)              0         
_________________________________________________________________
dense_5 (Dense)              (None, 1024)              2360320   
_________________________________________________________________
activation_14 (Activation)   (None, 1024)              0         
_________________________________________________________________
dense_6 (Dense)              (None, 512)               524800    
_________________________________________________________________
activation_15 (Activation)   (None, 512)               0         
_________________________________________________________________
dense_7 (Dense)              (None, 62)                31806     
_________________________________________________________________
activation_16 (Activation)   (None, 62)                0         
=================================================================
Total params: 2,982,494
Trainable params: 2,982,494
Non-trainable params: 0
_________________________________________________________________
####################################################################################
###################################  LeNet  ########################################
####################################################################################
…
279/285 [============================>.] - ETA: 0s - loss: 0.2722 - acc: 0.9046
282/285 [============================>.] - ETA: 0s - loss: 0.2714 - acc: 0.9047
285/285 [==============================] - 7s 24ms/step - loss: 0.2725 - acc: 0.9042 - val_loss: 0.1853 - val_acc: 0.9512
Score for model: Test loss:  0.18507726524490864
Score for model: Test accuracy:  0.9512189054726368
_________________________________________________________________
Layer (type)                 Output Shape              Param #   
=================================================================
conv2d_10 (Conv2D)           (None, 32, 32, 6)         456       
_________________________________________________________________
activation_17 (Activation)   (None, 32, 32, 6)         0         
_________________________________________________________________
max_pooling2d_5 (MaxPooling2 (None, 16, 16, 6)         0         
_________________________________________________________________
dropout_4 (Dropout)          (None, 16, 16, 6)         0         
_________________________________________________________________
conv2d_11 (Conv2D)           (None, 16, 16, 16)        2416      
_________________________________________________________________
activation_18 (Activation)   (None, 16, 16, 16)        0         
_________________________________________________________________
max_pooling2d_6 (MaxPooling2 (None, 8, 8, 16)          0         
_________________________________________________________________
conv2d_12 (Conv2D)           (None, 8, 8, 35)          14035     
_________________________________________________________________
activation_19 (Activation)   (None, 8, 8, 35)          0         
_________________________________________________________________
max_pooling2d_7 (MaxPooling2 (None, 4, 4, 35)          0         
_________________________________________________________________
flatten_4 (Flatten)          (None, 560)               0         
_________________________________________________________________
dense_8 (Dense)              (None, 120)               67320     
_________________________________________________________________
activation_20 (Activation)   (None, 120)               0         
_________________________________________________________________
dropout_5 (Dropout)          (None, 120)               0         
_________________________________________________________________
dense_9 (Dense)              (None, 84)                10164     
_________________________________________________________________
activation_21 (Activation)   (None, 84)                0         
_________________________________________________________________
dense_10 (Dense)             (None, 62)                5270      
_________________________________________________________________
activation_22 (Activation)   (None, 62)                0         
=================================================================
Total params: 99,661
Trainable params: 99,661
Non-trainable params: 0
_________________________________________________________________
