…
272/285 [===========================>..] - ETA: 0s - loss: 0.1011 - acc: 0.9688
279/285 [============================>.] - ETA: 0s - loss: 0.1051 - acc: 0.9684
285/285 [==============================] - 3s 10ms/step - loss: 0.1053 - acc: 0.9684 - val_loss: 0.4570 - val_acc: 0.9032
Score for model: Test loss:  0.4567320611929163
Score for model: Test accuracy:  0.9031094527363184
_________________________________________________________________
Layer (type)                 Output Shape              Param #   
=================================================================
conv2d_1 (Conv2D)            (None, 16, 16, 2)         152       
_________________________________________________________________
activation_1 (Activation)    (None, 16, 16, 2)         0         
_________________________________________________________________
flatten_1 (Flatten)          (None, 512)               0         
_________________________________________________________________
dense_1 (Dense)              (None, 200)               102600    
_________________________________________________________________
activation_2 (Activation)    (None, 200)               0         
_________________________________________________________________
dense_2 (Dense)              (None, 62)                12462     
_________________________________________________________________
activation_3 (Activation)    (None, 62)                0         
=================================================================
Total params: 115,214
Trainable params: 115,214
Non-trainable params: 0
_________________________________________________________________
####################################################################################
###################################  CNN2  #########################################
####################################################################################
…
281/285 [============================>.] - ETA: 0s - loss: 0.2459 - acc: 0.9270
283/285 [============================>.] - ETA: 0s - loss: 0.2454 - acc: 0.9269
285/285 [==============================] - 15s 54ms/step - loss: 0.2444 - acc: 0.9274 - val_loss: 0.1673 - val_acc: 0.9579
Score for model: Test loss:  0.16729126154643192
Score for model: Test accuracy:  0.9579850746268657
_________________________________________________________________
Layer (type)                 Output Shape              Param #   
=================================================================
conv2d_2 (Conv2D)            (None, 32, 32, 32)        896       
_________________________________________________________________
activation_4 (Activation)    (None, 32, 32, 32)        0         
_________________________________________________________________
conv2d_3 (Conv2D)            (None, 30, 30, 32)        9248      
_________________________________________________________________
activation_5 (Activation)    (None, 30, 30, 32)        0         
_________________________________________________________________
max_pooling2d_1 (MaxPooling2 (None, 15, 15, 32)        0         
_________________________________________________________________
dropout_1 (Dropout)          (None, 15, 15, 32)        0         
_________________________________________________________________
conv2d_4 (Conv2D)            (None, 15, 15, 64)        18496     
_________________________________________________________________
activation_6 (Activation)    (None, 15, 15, 64)        0         
_________________________________________________________________
conv2d_5 (Conv2D)            (None, 13, 13, 64)        36928     
_________________________________________________________________
activation_7 (Activation)    (None, 13, 13, 64)        0         
_________________________________________________________________
max_pooling2d_2 (MaxPooling2 (None, 6, 6, 64)          0         
_________________________________________________________________
dropout_2 (Dropout)          (None, 6, 6, 64)          0         
_________________________________________________________________
flatten_2 (Flatten)          (None, 2304)              0         
_________________________________________________________________
dense_3 (Dense)              (None, 512)               1180160   
_________________________________________________________________
activation_8 (Activation)    (None, 512)               0         
_________________________________________________________________
dropout_3 (Dropout)          (None, 512)               0         
_________________________________________________________________
dense_4 (Dense)              (None, 62)                31806     
_________________________________________________________________
activation_9 (Activation)    (None, 62)                0         
=================================================================
Total params: 1,277,534
Trainable params: 1,277,534
Non-trainable params: 0
_________________________________________________________________
####################################################################################
###################################  CNN3  #########################################
####################################################################################
…
281/285 [============================>.] - ETA: 0s - loss: 0.2424 - acc: 0.9257
283/285 [============================>.] - ETA: 0s - loss: 0.2442 - acc: 0.9249
285/285 [==============================] - 9s 33ms/step - loss: 0.2441 - acc: 0.9252 - val_loss: 0.2512 - val_acc: 0.9302
Score for model: Test loss:  0.2514479956815751
Score for model: Test accuracy:  0.9300995024875622
_________________________________________________________________
Layer (type)                 Output Shape              Param #   
=================================================================
conv2d_6 (Conv2D)            (None, 32, 32, 16)        448       
_________________________________________________________________
activation_10 (Activation)   (None, 32, 32, 16)        0         
_________________________________________________________________
conv2d_7 (Conv2D)            (None, 30, 30, 16)        2320      
_________________________________________________________________
activation_11 (Activation)   (None, 30, 30, 16)        0         
_________________________________________________________________
max_pooling2d_3 (MaxPooling2 (None, 15, 15, 16)        0         
_________________________________________________________________
dropout_4 (Dropout)          (None, 15, 15, 16)        0         
_________________________________________________________________
conv2d_8 (Conv2D)            (None, 15, 15, 32)        4640      
_________________________________________________________________
activation_12 (Activation)   (None, 15, 15, 32)        0         
_________________________________________________________________
conv2d_9 (Conv2D)            (None, 13, 13, 32)        9248      
_________________________________________________________________
activation_13 (Activation)   (None, 13, 13, 32)        0         
_________________________________________________________________
max_pooling2d_4 (MaxPooling2 (None, 6, 6, 32)          0         
_________________________________________________________________
dropout_5 (Dropout)          (None, 6, 6, 32)          0         
_________________________________________________________________
conv2d_10 (Conv2D)           (None, 6, 6, 64)          18496     
_________________________________________________________________
activation_14 (Activation)   (None, 6, 6, 64)          0         
_________________________________________________________________
conv2d_11 (Conv2D)           (None, 4, 4, 64)          36928     
_________________________________________________________________
activation_15 (Activation)   (None, 4, 4, 64)          0         
_________________________________________________________________
max_pooling2d_5 (MaxPooling2 (None, 2, 2, 64)          0         
_________________________________________________________________
dropout_6 (Dropout)          (None, 2, 2, 64)          0         
_________________________________________________________________
flatten_3 (Flatten)          (None, 256)               0         
_________________________________________________________________
dense_5 (Dense)              (None, 1024)              263168    
_________________________________________________________________
activation_16 (Activation)   (None, 1024)              0         
_________________________________________________________________
dense_6 (Dense)              (None, 512)               524800    
_________________________________________________________________
activation_17 (Activation)   (None, 512)               0         
_________________________________________________________________
dropout_7 (Dropout)          (None, 512)               0         
_________________________________________________________________
dense_7 (Dense)              (None, 62)                31806     
_________________________________________________________________
activation_18 (Activation)   (None, 62)                0         
=================================================================
Total params: 891,854
Trainable params: 891,854
Non-trainable params: 0
_________________________________________________________________
####################################################################################
###################################  LeNet  ########################################
####################################################################################
…
279/285 [============================>.] - ETA: 0s - loss: 0.2933 - acc: 0.9039
283/285 [============================>.] - ETA: 0s - loss: 0.2939 - acc: 0.9037
285/285 [==============================] - 6s 22ms/step - loss: 0.2936 - acc: 0.9037 - val_loss: 0.2526 - val_acc: 0.9278
Score for model: Test loss:  0.25223070198221165
Score for model: Test accuracy:  0.9277860696517413
_________________________________________________________________
Layer (type)                 Output Shape              Param #   
=================================================================
conv2d_12 (Conv2D)           (None, 32, 32, 6)         456       
_________________________________________________________________
activation_19 (Activation)   (None, 32, 32, 6)         0         
_________________________________________________________________
max_pooling2d_6 (MaxPooling2 (None, 16, 16, 6)         0         
_________________________________________________________________
dropout_8 (Dropout)          (None, 16, 16, 6)         0         
_________________________________________________________________
conv2d_13 (Conv2D)           (None, 16, 16, 16)        2416      
_________________________________________________________________
activation_20 (Activation)   (None, 16, 16, 16)        0         
_________________________________________________________________
max_pooling2d_7 (MaxPooling2 (None, 8, 8, 16)          0         
_________________________________________________________________
conv2d_14 (Conv2D)           (None, 8, 8, 35)          14035     
_________________________________________________________________
activation_21 (Activation)   (None, 8, 8, 35)          0         
_________________________________________________________________
max_pooling2d_8 (MaxPooling2 (None, 4, 4, 35)          0         
_________________________________________________________________
flatten_4 (Flatten)          (None, 560)               0         
_________________________________________________________________
dense_8 (Dense)              (None, 120)               67320     
_________________________________________________________________
activation_22 (Activation)   (None, 120)               0         
_________________________________________________________________
dropout_9 (Dropout)          (None, 120)               0         
_________________________________________________________________
dense_9 (Dense)              (None, 84)                10164     
_________________________________________________________________
activation_23 (Activation)   (None, 84)                0         
_________________________________________________________________
dense_10 (Dense)             (None, 62)                5270      
_________________________________________________________________
activation_24 (Activation)   (None, 62)                0         
=================================================================
Total params: 99,661
Trainable params: 99,661
Non-trainable params: 0
_________________________________________________________________
